models/mnist_cnn_torch.pt (torch, 167775 bytes, 8 tensors)

conv1.weight f4 [32, 1, 3, 3]
0.12508363 -0.3091567 -0.17082742 0.20535222 -0.22828554 0.33234793 0.009498043 0.22007994
0.090490706 0.02282222 0.14060253 0.0761566 0.18740366 -0.028596975 0.057384737 0.029716343
0.09096909 -0.01153045 0.37949944 0.22972174 -0.078475915 -0.25031328 0.036460422 -0.1180076
-0.2551639 0.043934833 0.24406129 0.30463365 -0.19608495 0.28289035 0.20923086 0.40883464
0.31776744 -0.41357526 -0.49641442 -0.21223159 0.34902796 0.008956111 0.19882225 -0.034026835
0.39464322 -0.094737 0.32403868 0.011639724 -0.2731387 0.27769858 -0.09646356 0.08647671
-0.13947798 -0.18689437 -0.43295848 -0.39088598 -0.003534154 -0.010353343 0.4360387 0.33845904
-0.17333537 -0.21484783 0.2724925 0.14331898 -0.3364372 0.18204309 0.21897936 0.49253017
-0.016793903 -0.16477779 0.23287065 0.08849436 -0.55558735 -0.00047626984 0.2371311 -0.22727337
0.34404427 0.122386135 0.100149594 0.22726177 0.23868567 0.23978682 -0.23239599 0.19416544
-0.29452032 -0.20842154 -0.13804103 -0.28825295 0.32776406 -0.20596188 -0.38479963 0.40616256
0.10407237 0.32132825 0.28886795 -0.19382383 -0.055689584 0.26838526 -0.20631887 -0.32698923
0.3182395 0.15578571 -0.11301358 -0.039591976 0.3863947 -0.20204383 0.29808462 0.22811384
-0.33846006 -0.2750055 0.39897376 0.088308886 0.3213672 0.13693507 0.0611453 0.34722236
0.41656357 -0.15255512 0.116605304 0.3077471 0.23784506 0.302049 -0.22620942 -0.40169188
-0.05932659 0.2072361 0.46336213 -0.10976966 0.25629365 -0.1132413 -0.51530266 -0.1431605
0.21609232 0.32534647 -0.07786455 0.21008562 0.35439578 0.23553808 0.15418996 0.40114892
0.41270283 0.32589322 -0.24039182 -0.2215344 -0.045891866 -0.24561153 -0.40969095 0.009806752
0.1333082 -0.03036208 0.14713489 0.23889378 0.3612523 0.32667696 -0.017866075 0.39309695
-0.042313848 -0.28699017 -0.40756094 -0.057498224 -0.43330783 -0.031940445 0.44665855 -0.27225277
-0.1324392 0.3389155 0.31198436 0.42224964 0.09353182 0.21667898 0.0004733304 0.046420284
-0.48728034 -0.39751843 -0.1258778 0.17497507 0.09587972 0.10238015 0.3838702 0.40896225
0.34315038 0.044631332 -0.19817382 0.27201602 -0.040974848 -0.44353616 -0.43002197 -0.18281065
-0.30139363 0.46032616 -0.5499911 -0.064852595 0.22322558 -0.2828072 0.16199504 -0.10482472
-0.32411227 0.022116207 0.29145718 -0.33290413 0.20216435 0.26778874 0.33602935 -0.19522502
0.118561745 -0.09068821 0.39078385 -0.042267688 0.2830105 0.03669197 -0.11903929 0.022065949
0.060294587 0.032501407 0.19312902 0.1704055 -0.38764971 0.25008327 0.28444263 0.22709334
0.35697386 -0.20623639 -0.08001397 0.43835762 -0.07624646 0.4549896 -0.31467566 -0.29705015
0.21777825 -0.37261835 -0.026406495 0.33441633 0.37862125 0.5238022 0.08526173 -0.16048959
0.36511883 -0.09281875 -0.12995815 -0.024009252 -0.54073584 0.28643376 0.3090451 -0.26959634
-0.19083254 0.082525425 0.2441434 0.018866697 -0.47094062 -0.08469088 -0.13427763 -0.23577207
-0.13014835 0.5095781 0.49955544 0.115751795 0.0949113 0.20764117 0.06859281 -0.07060035
00000000: ec15 003e c949 9ebe 62ed 2ebe da47 523e
00000010: afc3 69be 8229 aa3e ae9d 1b3c a35c 613e
00000020: 3153 b93d aaf5 ba3c 1cfa 0f3e fef7 9b3d
00000030: bfe6 3f3e 3444 eabc 420c 6b3d b06f f33c
00000040: 014e ba3d 36ea 3cbc c04d c23e 2d3c 6b3e
00000050: fbb7 a0bd 1029 80be 8657 153d f8ad f1bd
00000060: d8a4 82be 03f5 333d 34eb 793e f1f8 9b3e
00000070: 7eca 48be 01d7 903e 9d40 563e c652 d13e
00000080: 6ab2 a23e 23c0 d3be 082a febe 3d53 59be
00000090: cbb3 b23e a7bc 123c 0f98 4b3e b95f 0bbd
000000a0: ad0e ca3e 7905 c2bd 66e8 a53e 8ab4 3e3c
000000b0: d6d8 8bbe 822e 8e3e b08e c5bd b41a b13d
000000c0: 51d3 0ebe 3d61 3fbe bcac ddbe 3522 c8be
000000d0: 449d 67bb 11a1 29bc 7740 df3e 814a ad3e
000000e0: d47e 31be 1201 5cbe 2384 8b3e 36c2 123e
000000f0: 7f41 acbe 8169 3a3e 203c 603e ea2c fc3e
00000100: 5e93 89bc 82bb 28be a575 6e3e 883c b53d
00000110: f93a 0ebf dbb3 f9b9 7fd2 723e 5aba 68be
00000120: 9226 b03e 95a5 fa3d 3b1b cd3d 4fb7 683e
00000130: 046a 743e ad8a 753e 37f9 6dbe 4ed3 463e
00000140: 5ecb 96be 756c 55be a15a 0dbe e495 93be
00000150: b1d0 a73e ace7 52be 7504 c5be 8af4 cf3e
00000160: e523 d53d 2385 a43e 80e6 933e c179 46be
00000170: c31a 64bd cb69 893e 4145 53be 226b a7be
00000180: 4af0 a23e 4a86 1f3e aa73 e7bd 322b 22bd
00000190: 87d5 c53e 94e4 4ebe 8c9e 983e ad96 693e
000001a0: a34a adbe 85cd 8cbe 4a46 cc3e 4adb b43d
000001b0: 3e8a a43e b538 0c3e 7e73 7a3d 21c7 b13e
000001c0: d247 d53e 6937 1cbe c3ce ee3d 0791 9d3e
000001d0: a88d 733e 2ba6 9a3e 71a3 67be 8faa cdbe
000001e0: 7000 73bd b335 543e cd3d ed3e eace e0bd
000001f0: ec38 833e 0eeb e7bd e0ea 03bf ab98 12be
00000200: 4e47 5d3e d093 a63e 7377 9fbd af20 573e
00000210: 5d73 b53e e530 713e f9e3 1d3e 6463 cd3e
00000220: c94d d33e 7adb a63e 4629 76be ead9 62be
00000230: 1cf9 3bbd 9781 7bbe 03c3 d1be 80ac 203c
00000240: f281 083e e6b9 f8bc 87aa 163e 92a0 743e
00000250: 10f6 b83e 3442 a73e e05b 92bc 0144 c93e
00000260: 4951 2dbd 60f0 92be d4ab d0be 4283 6bbd
00000270: 86da ddbe fcd3 02bd 6eb0 e43e b764 8bbe
00000280: 249e 07be 5586 ad3e 6abc 9f3e 1b31 d83e
00000290: 9c8d bf3d 18e1 5d3e 5529 f839 3223 3e3d
000002a0: cf7c f9be 8987 cbbe 1ce6 00be aa2c 333e
000002b0: 965c c43d afac d13d a38a c43e 8063 d13e
000002c0: 68b1 af3e 58cf 363d 14ee 4abe af45 8b3e
000002d0: 3ed5 27bd 2c17 e3be d72b dcbe b732 3bbe
000002e0: 4450 9abe dfaf eb3e 37cc 0cbf 70d1 84bd
000002f0: 3f95 643e 1bcc 90be 07e2 253e 58ae d6bd
00000300: 0bf2 a5be 0c2d b53c e039 953e 6972 aabe
00000310: 2c04 4f3e 9b1b 893e 0a0c ac3e 11e9 47be
00000320: 80d0 f23d beba b9bd d214 c83e e220 2dbd
00000330: c1e6 903e 524a 163d dfca f3bd a6c3 b43c
00000340: 75f7 763d 3220 053d 9dc3 453e c87e 2e3e
00000350: 067a c6be ea0a 803e 77a2 913e 288b 683e
00000360: 47c5 b63e a22f 53be 5dde a3bd 6970 e03e
00000370: 1b27 9cbd 66f4 e83e 2b1d a1be f516 98be
00000380: 4301 5f3e d5c7 bebe 6f52 d8bc 9e38 ab3e
00000390: a5da c13e e717 063f b49d ae3d 6257 24be
000003a0: dbf0 ba3e c217 bebd c013 05be 0daf c4bc
000003b0: aa6d 0abf 72a7 923e 293b 9e3e 8808 8abe
000003c0: 9b69 43be 1703 a93d ba00 7a3e 558e 9a3c
000003d0: 211f f1be 6972 adbd 1380 09be 3c6e 71be
000003e0: 9c45 05be b673 023f bbc5 ff3e 470f ed3d
000003f0: db60 c23d e39f 543e 637a 8c3d eb96 90bd

conv1.bias f4 [32]
-0.07757421 -0.08940604 -0.05134143 -0.11371229 0.027787315 0.24547744 -0.11748707 -0.018567733
-0.12009576 0.0337573 -0.08127548 -0.18571652 -0.1252198 -0.047676124 -0.1337616 -0.001285089
-0.11948033 0.004076457 -0.0758918 0.040244747 0.13406488 0.14605287 -0.15126495 -0.2212491
-0.25453576 -0.19552386 0.17234349 -0.09917568 -0.15004295 -0.042911164 0.1384359 -0.11036328
00000000: 3adf 9ebd 841a b7bd 644b 52bd fde1 e8bd
00000010: 39a2 e33c 705e 7b3e 109d f0bd 5c1b 98bc
00000020: c4f4 f5bd 1845 0a3d c273 a6bd 792c 3ebe
00000030: 9f39 00be 0a48 43bd cdf8 08be 6e70 a8ba
00000040: 1ab2 f4bd cd93 853b 296d 9bbd add7 243d
00000050: 4e48 093e e28e 153e 33e5 1abe 208f 62be
00000060: 8352 82be 6837 48be d07a 303e 9e1c cbbd
00000070: dca4 19be 9ec3 2fbd 24c2 0d3e 2506 e2bd

conv2.weight f4 [32, 32, 3, 3]
-0.05141657 -0.00096574915 0.04857483 -0.09376082 -0.008154335 0.097422525 -0.07095325 -0.073881775
0.054884747 0.0045754793 0.08073019 0.045982946 -0.013481964 -0.026913773 -0.00053284154 -0.07944565
-0.04033604 0.0045711873 0.08925986 0.12721759 0.0012683806 -0.06785105 0.00015418087 0.1763712
-0.06284531 -0.0077012354 0.09956457 -0.0002797745 -0.068470255 -0.1537263 0.0054314034 0.021022938
-0.04809322 -0.08374755 0.021059446 0.115297735 0.04634608 0.058420185 0.09270872 -0.081546396
-0.07740386 -0.054905985 -0.020558456 -0.05174554 0.043829333 -0.0026505052 -0.21994813 -0.21794137
-0.0025809337 -0.1312361 -0.38605487 -0.009381458 -0.024526095 -0.22252858 0.0428973 0.10295777
0.005289655 0.0151233915 0.089180894 0.12290777 -0.102573276 -0.039964564 0.17435259 0.10216009
0.0653059 0.31396323 -0.0839054 -0.14422631 0.105885334 -0.28717902 -0.20357063 -0.07609717
0.011688601 0.04209876 0.09007766 -0.056254897 0.04128361 0.033580672 -0.03748696 -0.0037703994
0.03642455 -0.1052802 -0.12589547 0.09931549 -0.22629777 -0.29191622 0.21455635 -0.057458878
-0.13251226 -0.05451506 -0.035150383 0.07292392 0.37489605 -0.23020813 -0.14537433 0.309113
-0.32423893 -0.21478698 -0.038300943 0.0021927017 0.117678456 0.2140173 -0.0772993 0.14726017
0.2028808 -0.0755871 -0.10623683 0.040057637 0.018102825 0.059346817 0.047758736 -0.10063028
0.024190664 0.09424081 -0.049944974 -0.0793919 0.096397296 -0.051350918 0.02409119 0.05095381
-0.1944972 -0.009560362 0.09874797 -0.04011051 -0.1513145 0.18417649 -0.029532226 0.039228696
-0.050378922 -0.088985965 0.02346898 0.011567935 0.042019725 -0.004618672 0.060883936 0.17294255
-0.056134794 -0.11155691 0.056365684 -0.046211988 -0.15434109 -0.067576006 0.0670816 0.041931
0.00873643 0.07745338 -0.022455804 -0.060203325 0.01727258 -0.008377388 -0.08694897 -0.04998712
0.11666621 0.093712054 0.11400151 0.085781135 -0.1679323 -0.047277093 -0.07219659 -0.21202478
-0.11699519 -0.16790792 0.08803345 -0.08398143 -0.08961942 -0.043722317 -0.16500704 -0.2186217
-0.0644447 -0.0076178284 -0.15456903 -0.00992268 0.080305345 -0.053009626 -0.038407397 0.047240485
0.06661743 -0.114453085 -0.03992169 0.07831206 -0.12566914 -0.07248739 -0.077961504 -0.11970195
-0.18821996 -0.25761384 -0.13658716 -0.25495422 -0.30407077 0.012635984 0.014628371 -0.043877527
-0.07304173 0.07571567 0.065470114 -0.10677855 -0.06665572 0.022324694 -0.04259214 0.06198844
0.00035627934 -0.13668151 -0.0005544595 0.038813893 -0.08409581 -0.109882094 0.094746165 -0.014476555
0.04308599 0.040959403 -0.09103246 0.05568763 0.12573037 -0.0063722446 -0.04313648 0.010809055
0.06479074 0.112229586 0.050269503 0.0021525207 0.065327264 0.1461304 -0.20845981 -0.12505654
0.08368387 0.050614413 0.039360806 0.10417188 -0.07335942 0.031128261 0.006175358 -0.087378725
-0.013372121 -0.030761119 -0.11555843 -0.03603893 0.104520075 -0.06437782 -0.0651721 0.13583057
-0.07883198 -0.1342093 -0.015673744 -0.10565086 -0.1691094 -0.01929774 -0.19307768 -0.36035448
0.11688114 0.14970575 -0.0028102722 -0.020680025 -0.021636602 0.029692927 -0.04461289 -0.050368972
00000000: 2e9a 52bd 542a 7dba 67f6 463d ac05 c0bd
00000010: c399 05bc 7685 c73d f04f 91bd 544f 97bd
00000020: d4ce 603d e7ed 953b df55 a53d 9d58 3c3d
00000030: 75e3 5cbc 467a dcbc 64ae 0bba 67b4 a2bd
00000040: 6737 25bd e6c9 953b e0cd b63d 5445 023e
00000050: ca3f a63a 7ef5 8abd 9dab 2139 a79a 343e
00000060: 0bb5 80bd a55a fcbb 82e8 cb3d b3ae 92b9
00000070: 223a 8cbd 6d6a 1dbe eaf9 b13b 4c38 ac3c
00000080: 65fd 44bd d683 abbd dc84 ac3c 3821 ec3d
00000090: 63d5 3d3d 014a 6f3d 12de bd3d cc01 a7bd
000000a0: ea85 9ebd 19e5 60bd 356a a8bc 22f3 53bd
000000b0: 6386 333d 19b4 2dbb 153a 61be 062c 5fbe
000000c0: e224 29bb c262 06be fca8 c5be b0b4 19bc
000000d0: f3ea c8bc 88de 63be 14b5 2f3d 86db d23d
000000e0: d854 ad3b 1ac8 773c 79a4 b63d 12b7 fb3d
000000f0: f011 d2bd e2b1 23bd 7c89 323e 4f39 d13d
00000100: 1abf 853d cabf a03e 98d6 abbd 10b0 13be
00000110: 69da d83d 2109 93be d274 50be d5d8 9bbd
00000120: 8c81 3f3c c06f 2c3d a37a b83d 896b 66bd
00000130: 0119 293d e38b 093d ed8b 19bd ce18 77bb
00000140: e931 153d 259d d7bd beea 00be eb65 cb3d
00000150: 9aba 67be 0b76 95be a9b4 5b3e 005a 6bbd
00000160: 4bb1 07be 2f4b 5fbd d9f9 0fbd 2359 953d
00000170: 60f2 bf3e aebb 6bbe 02dd 14be 0f44 9e3e
00000180: a502 a6be 1ef1 5bbe 73e1 1cbd 6eb3 0f3b
00000190: 6701 f13d 5a27 5b3e 184f 9ebd 5fcb 163e
000001a0: fcbf 4f3e 69cd 9abd b292 d9bd 7a13 243d
000001b0: 604c 943c a615 733d aa9e 433d 4017 cebd
000001c0: 802b c63c 5301 c13d 1a93 4cbd 3898 a2bd
000001d0: f26b c53d 5755 52bd e35a c53c f1b4 503d
000001e0: 462a 47be 11a3 1cbc 603c ca3d eb4a 24bd
000001f0: 30f2 1abe c398 3c3e 91ed f1bc 45ae 203d
00000200: 215a 4ebd 463e b6bd 0542 c03c 7087 3d3c
00000210: e01c 2c3d 3b58 97bb 6f61 793d da17 313e
00000220: 99ed 65bd f377 e4bd b4df 663d c848 3dbd
00000230: 970b 1ebe 4a65 8abd 1462 893d d7bf 2b3d
00000240: 3e23 0f3c e19f 9e3d 3cf5 b7bc c397 76bd
00000250: 3a7f 8d3c 5041 09bc 4d12 b2bd 4bbf 4cbd
00000260: b2ee ee3d 1bec bf3d a079 e93d 05ae af3d
00000270: 72f6 2bbe a0a5 41bd cedb 93bd 061d 59be
00000280: 2d9b efbd 0ef0 2bbe e24a b43d 75fe abbd
00000290: 638a b7bd 2c16 33bd 9bf7 28be 5ede 5fbe
000002a0: 95fb 83bd fa9e f9bb 5847 1ebe bd92 22bc
000002b0: 2177 a43d 9f20 59bd 1351 1dbd 3d7f 413d
000002c0: b86e 883d 6166 eabd ed84 23bd 1362 a03d
000002d0: 69af 00be 4574 94bd 48aa 9fbd 4c26 f5bd
000002e0: bcbc 40be f6e5 83be 81dd 0bbe 5c89 82be
000002f0: 2aaf 9bbe 2907 4f3c d6ab 6f3c ecb8 33bd
00000300: e796 95bd d110 9b3d 3215 863d b6ae dabd
00000310: cb82 88bd 47e2 b63c 1975 2ebd 97e7 7d3d
00000320: 01cb ba39 3df6 0bbe 2659 11ba 51fb 1e3d
00000330: 6d3a acbd dd09 e1bd 470a c23d 132f 6dbc
00000340: ef7a 303d 0cc5 273d 3a6f babd b618 643d
00000350: 76bf 003e 43ce d0bb e1af 30bd 7618 313c
00000360: 02b1 843d a0d8 e53d 65e7 4d3d 4e11 0d3b
00000370: 4dca 853d 35a3 153e 7d76 55be d20e 00be
00000380: 7362 ab3d 0f51 4f3d cc38 213d 1158 d53d
00000390: 773d 96bd b200 ff3c a85a ca3b 9ef3 b2bd
000003a0: be16 5bbc befe fbbc e6a9 ecbd 8f9d 13bd
000003b0: 9f0e d63d 85d8 83bd f378 85bd 2b17 0b3e
000003c0: a972 a1bd 2a6e 09be 3966 80bc 7a5f d8bd
000003d0: 042b 2dbe 4b16 9ebc 28b6 45be 6280 b8be
000003e0: 615f ef3d 774c 193e 8b2c 38bb 2869 a9bc
000003f0: 3e3f b1bc 953e f33c 01bc 36bd b24f 4ebd

conv2.bias f4 [32]
0.0070073386 -0.007809109 -0.06623942 -0.020791493 0.05301855 -0.02522998 0.023722364 -0.07148886
0.007183555 0.031320374 0.028733248 -0.013967054 -0.010780592 -0.005699747 -0.00063762715 -0.014846472
-0.06820799 0.037420258 -0.008039377 -0.058987223 -0.07735889 -0.022890605 -0.020688802 -0.00852935
-0.0073807156 0.005412118 -0.043780215 -0.053662524 -0.014740679 -0.020008516 -0.025996845 0.0045865867
00000000: d19d e53b 8ee3 ffbb 88a8 87bd ec52 aabc
00000010: fb29 593d 1aaf cebc 6755 c23c c068 92bd
00000020: 0764 eb3b cb49 003d fd61 eb3c 12d6 64bc
00000030: 15a1 30bc f1c4 babb 6f26 27ba 9e3e 73bc
00000040: a1b0 8bbd fc45 193d 97b7 03bc 969c 71bd
00000050: 566e 9ebd 1485 bbbc 907b a9bc b0be 0bbc
00000060: eed9 f1bb 2358 b13b e252 33bd 3ccd 5bbd
00000070: e482 71bc e6e8 a3bc 56f7 d4bc 144b 963b

conv3.weight f4 [16, 32, 3, 3]
-0.027606549 -0.026573768 0.035618972 0.032464597 0.08731194 0.09393715 -0.060486346 0.08059633
0.048470896 0.08542285 -0.0073934803 -0.16430068 0.05774197 -0.020181768 0.008678758 -0.068017736
0.0897287 0.20229475 -0.2330843 -0.11070618 0.019932158 -0.18813959 0.033091184 0.20893395
-0.18415709 0.02107932 0.19160722 0.008324688 0.00071426615 -0.096385114 -0.03293935 -0.030109778
-0.092062615 -0.058677547 -0.006288519 -0.086443245 0.09594693 -0.05144092 -0.18629372 0.122978546
0.055119567 -0.037376553 0.062591776 0.046556287 0.08805281 0.048995905 0.027636398 -0.00023820542
0.019883161 0.021677488 0.0010232069 -0.05698058 0.024721025 -0.035732727 0.0020732502 -0.12945315
-0.13141024 0.04455504 -0.042167556 0.012035175 -0.050368264 -0.0073971925 0.14841762 0.12467778
0.091677 0.09567883 0.06023992 0.07500359 -0.03482423 0.046424113 -0.010079859 -0.04652617
0.045329556 0.085280456 -0.054884277 0.06776009 0.09551274 0.06965134 0.04214437 -0.012729912
0.07771065 0.1253209 0.03253018 -0.19502883 0.05623935 0.0778688 -0.027689444 -0.022415137
0.04064404 0.03907243 -0.13969678 -0.10255887 -0.0944018 -0.2897024 -0.117856905 0.08452483
-0.3690632 -0.16758102 0.114794545 -0.08485673 -0.13199982 -0.15923949 0.073065445 0.046342142
-0.028502462 0.06032709 0.0075752824 0.11606485 0.06228898 0.037329424 -0.0174112 0.070769385
0.033976685 -0.01854666 0.10360179 0.047851287 0.019238418 -0.08676815 -0.17982918 -0.14286837
-0.037487157 -0.053705838 -0.03265426 -0.012615248 -0.06701976 0.0017734042 -0.091586776 -0.12741658
0.012533886 -0.11258878 -0.050141204 0.0921875 -0.20246105 0.02874014 0.1521634 -0.034138817
0.0025447735 -0.100368515 -0.06299671 -0.055316776 0.033142846 0.047766387 0.078222625 0.0432235
0.08015148 0.007925213 -0.049409334 0.01245172 -0.05970253 -0.16777377 0.06652587 -0.035470575
-0.13106434 -0.08482399 -0.088769704 -0.14154458 0.021373728 -0.033505872 -0.030575547 0.017765826
0.15060358 0.103139676 0.074143104 0.031900853 -0.07395055 0.059852365 0.053466015 -0.033938944
0.012026984 0.03127651 0.0056998897 -0.20162603 -0.29631016 -0.1537674 -0.1102542 -0.060492612
-0.0095721865 -0.16587728 -0.049090523 0.09041135 -0.032624856 -0.021953288 0.0123179015 0.04442636
0.014871105 -0.029168088 -0.047002953 0.012360031 0.0048884023 0.02724016 0.13090448 0.0062350393
0.10470741 0.12248784 0.09941241 0.059531737 0.021644633 0.04936469 -0.12149158 -0.106630914
0.022443304 -0.002001972 0.0183742 0.1775743 -0.061898764 0.07954185 0.13280019 -0.007040528
-0.06299096 -0.08736586 -0.009656272 0.04459582 0.095672555 -0.0747177 -0.038358063 0.05891312
0.007908812 0.029728692 -0.02799284 0.09258738 0.064226165 -0.08577523 0.08575554 0.04064841
-0.051191755 0.02275224 -0.00043354818 -0.015373769 0.014993122 0.02129841 0.018686669 -0.020257574
-0.039793845 -0.045444746 -0.116804786 -0.13348137 -0.14968473 0.031576745 -0.07697967 -0.044701856
-0.07404449 0.0010415086 0.13791732 0.061455924 -0.054687813 -0.20132762 -0.016662225 -0.08724546
0.04701772 -0.07026898 -0.099057354 0.18113007 -0.14114359 -0.15457803 -0.029117804 -0.24041215
00000000: 2127 e2bc 3bb1 d9bc 33e5 113d 99f9 043d
00000010: 9ad0 b23d 1f62 c03d 88c0 77bd b00f a53d
00000020: 6b89 463d 2df2 ae3d 0245 f2bb 703e 28be
00000030: d882 6c3d 3c54 a5bc 5931 0e3c e24c 8bbd
00000040: aec3 b73d 5b26 4f3e a7ad 6ebe ecb9 e2bd
00000050: c448 a33c aaa7 40be 9f8a 073d c8f2 553e
00000060: ad93 3cbe 8aae ac3c af34 443e 4664 083c
00000070: 973d 3b3a 8f65 c5bd 69eb 06bd c8a8 f6bc
00000080: 538b bcbd de57 70bd ec0f cebb 2809 b1bd
00000090: d37f c43d b7b3 52bd c8c3 3ebe 2ddc fb3d
000000a0: 0ec5 613d 2818 19bd 1e30 803d ceb1 3e3d
000000b0: 0855 b43d eeaf 483d ba65 e23c c8c6 79b9
000000c0: 03e2 a23c fd94 b13c 201d 863a 7864 69bd
000000d0: bf83 ca3c 7b5c 12bd 5edf 073b 5e8f 04be
000000e0: 6890 06be 587f 363d e3b7 2cbd 2f2f 453c
000000f0: f44e 4ebd 2664 f2bb cafa 173e 1057 ff3d
00000100: 27c1 bb3d 43f3 c33d 22be 763d 7b9b 993d
00000110: daa3 0ebd 3627 3e3d fe25 25bc 3a92 3ebd
00000120: 7cab 393d 85a7 ae3d 56ce 60bd cdc5 8a3d
00000130: 2f9c c33d 5da5 8e3d 939f 2c3d 1f91 50bc
00000140: c326 9f3d 1f54 003e 5e3e 053d a3b5 47be
00000150: 3c5b 663d ad79 9f3d f9d4 e2bc f39f b7bc
00000160: 5d7a 263d 6a0a 203d ac0c 0fbe 630a d2bd
00000170: bb55 c1bd df53 94be f65e f1bd 5b1b ad3d
00000180: daf5 bcbe 5c9a 2bbe 6719 eb3d 5ec9 adbd
00000190: f62a 07be ad0f 23be 56a3 953d 42d1 3d3d
000001a0: ff7d e9bc 8a19 773d 133a f83b 68b3 ed3d
000001b0: bb22 7f3d bde6 183d efa1 8ebc 8aef 903d
000001c0: 232b 0b3d 2aef 97bc 2d2d d43d b6ff 433d
000001d0: e399 9d3c 80b3 b1bd 2425 38be 164c 12be
000001e0: 228c 19bd a7fa 5bbd 79c0 05bd 2fb0 4ebc
000001f0: a841 89bd 9271 e83a d991 bbbd 7e79 02be
00000200: ee5a 4d3c f294 e6bd dd60 4dbd cdcc bc3d
00000210: f351 4fbe 7170 eb3c b9d0 1b3e 25d5 0bbd
00000220: 37c6 263b 028e cdbd 6b04 81bd d893 62bd
00000230: cbc0 073d b0a6 433d 2f33 a03d 200b 313d
00000240: 7626 a43d c1d8 013c 7161 4abd 4d02 4c3c
00000250: a48a 74bd e3cc 2bbe b73e 883d 9849 11bd
00000260: bb35 06be 33b8 adbd e4cc b5bd 10f1 10be
00000270: f517 af3c 743d 09bd 9279 fabc a389 913c
00000280: d337 1a3e e53a d33d 57d8 973d 78aa 023d
00000290: 6373 97bd c127 753d 2eff 5a3d 9003 0bbd
000002a0: d40c 453c cc1b 003d 24c6 ba3b 0e77 4ebe
000002b0: f7b5 97be 3475 1dbe f4cc e1bd 1ac7 77bd
000002c0: a9d4 1cbc bcdb 29be 2513 49bd 9629 b93d
000002d0: a4a1 05bd 62d7 b3bc 06d1 493c 6af8 353d
000002e0: efa5 733c eaf1 eebc 2b86 40bd ba81 4a3c
000002f0: e42e a03b c226 df3c d30b 063e 4d4f cc3b
00000300: d770 d63d e8da fa3d bc98 cb3d 8dd7 733d
00000310: 1650 b13c a132 4a3d 94d0 f8bd 4f61 dabd
00000320: 05db b73c 8433 03bb 7e85 963c 0ad6 353e
00000330: 8f89 7dbd d6e6 a23d c6fc 073e 3bb4 e6bb
00000340: 6801 81bd dfec b2bd 5735 1ebc 1baa 363d
00000350: f9ef c33d 9805 99bd 581d 1dbd e24e 713d
00000360: f693 013c 9689 f33c 3e51 e5bc 749e bd3d
00000370: 0289 833d ecaa afbd 9aa0 af3d f27e 263d
00000380: 72ae 51bd e862 ba3c da4d e3b9 43e2 7bbc
00000390: b6a5 753c 017a ae3c c914 993c 36f3 a5bc
000003a0: dffe 22bd 4524 3abd 5937 efbd 57af 08be
000003b0: f446 19be 9e56 013d 84a7 9dbd 4b19 37bd
000003c0: a3a4 97bd 3b83 883a 333a 0d3e 35b9 7b3d
000003d0: 5400 60bd d428 4ebe 387f 88bc bfad b2bd
000003e0: a795 403d 2fe9 8fbd 95de cabd 297a 393e
000003f0: f287 10be b449 1ebe 7688 eebc 9a2e 76be

conv3.bias f4 [16]
0.15802 0.102564715 -0.006326232 -0.011130151 0.016632471 0.09164751 0.0055926642 -0.010220657
-0.0072709275 0.10535871 -0.023185182 -0.01807098 0.016917286 -0.009358679 -0.0020087005 -0.028458873
00000000: ffcf 213e 730d d23d 484c cfbb 3d5b 36bc
00000010: d240 883c b1b1 bb3d ab42 b73b 8b74 27bc
00000020: f640 eebb 4fc6 d73d daee bdbc 9809 94bc
00000030: 1f96 8a3c 2555 19bc 67a4 03bb 9522 e9bc

fc.weight f4 [10, 2704]
-0.06024588 -0.08387601 -0.1365234 -0.010803363 -0.0003490419 0.03909309 0.013850687 -0.07659924
-0.01815602 0.05790646 0.11598021 0.06187963 0.024098275 -0.011590768 -0.124969915 -0.11013443
-0.065277 -0.023513446 0.067878716 0.045985874 0.0057246108 -0.028304197 -0.026477266 -0.040469334
-0.008676674 -0.0072079254 -0.016389865 -0.0524687 -0.0020837951 0.0019294339 0.011442079 0.090185136
0.07483034 0.07334953 0.023174394 -0.07614699 -0.08947684 -0.146168 -0.03374969 -0.08009874
-0.055786982 -0.015300812 -0.05784278 -0.013992549 0.0175711 0.037232623 0.09494346 0.05916093
0.092171654 0.021359203 -0.06524702 -0.12435106 -0.08653861 -0.05044209 -0.091490425 -0.05403992
-0.024828743 -0.008842641 0.056026287 -0.029923985 0.046332896 -0.016227594 0.02857097 -0.004028451
-0.09036567 -0.10147349 -0.06956729 -0.003053694 -0.045369364 -0.0029236537 0.09561064 -0.0013306399
-0.020354945 -0.0064026206 0.025156565 0.007971403 0.012121376 -0.05108267 -0.041930724 -0.05370761
0.0024924125 0.038722165 0.09267094 0.14818417 -0.07459874 -0.10861961 0.029022936 0.033574857
0.034803867 0.04764438 0.041203685 -0.036025267 0.009687219 0.015107368 0.06951742 0.037306
-0.019194871 -0.15999599 -0.064851634 0.015729198 0.068502285 0.016112626 0.042951785 0.0825683
-0.02121244 0.039078098 -0.006843664 -0.008757916 0.029522728 0.013804176 -0.17895421 -0.055322066
0.07585928 0.07333198 0.0076268925 0.008541243 0.10143175 0.003010844 0.045648105 -0.032184605
-0.00068144157 0.022237638 0.042749904 -0.122317135 -0.012176363 0.033333376 0.0021188953 -0.07863478
-0.0017586093 -0.004534111 0.021017278 0.014622163 -0.009797415 0.09993366 0.071386516 -0.014676647
-0.095846444 -0.04984819 -0.109755926 -0.026652144 -0.0048888526 -0.026665686 0.030882077 0.07595815
-0.0034114257 -0.0024285342 0.019695558 -0.022658912 -0.030534007 -0.12401337 -0.07818349 -0.06829327
-0.03382361 0.02367077 -0.0076055867 -0.031693652 0.02252748 -0.045332607 -0.029944738 0.0052178646
0.014424358 -0.061996028 -0.1645873 -0.2239201 -0.17544208 -0.10039612 -0.020833373 -0.08954513
-0.042651802 -0.06554717 -0.05116708 -0.036754653 -0.062251747 -0.017077018 0.040748164 -0.010408334
-0.05936433 -0.07175579 -0.031565648 -0.041244768 -0.015317725 -0.020737736 -0.0353954 -0.056426957
-0.024074936 -0.033987146 -0.020522568 -0.019533325 -0.052938107 -0.042270727 -0.039837796 -0.041592762
-0.02704924 0.025760403 0.026839519 -0.057834264 -0.013905632 -0.044651177 -0.0413745 -0.008182389
-0.030312225 0.06765901 0.030363033 0.07970649 -0.023145812 -0.059897713 0.00793738 0.015279894
-0.053209733 -0.017604046 -0.004907551 -0.0028046377 -0.07169002 0.0008903518 0.040232237 0.042344213
0.010703062 -0.016489383 -0.050621744 -0.029760277 0.00469176 -0.008153663 0.018333383 -0.010498322
-0.0012207353 0.0491358 0.089430094 -0.019616196 -0.031047575 -0.048145525 -0.00084078073 -0.029389806
0.048975527 -0.024590338 0.08443996 0.0073842444 0.078024216 0.06213344 0.020506425 -0.0026285697
-0.07064607 -0.15623067 -0.03728894 -0.010035317 0.109909736 -0.023846189 -0.11366876 0.09519173
0.07510978 0.09777238 0.046528526 0.061856832 0.02736389 -0.15912127 -0.10524077 0.047280602
00000000: 62c4 76bd 2fc7 abbd cacc 0bbe 9700 31bc
00000010: 9cff b6b9 1320 203d feed 623c 10e0 9cbd
00000020: efbb 94bc 532f 6d3d 0887 ed3d 7f75 7d3d
00000030: bf69 c53c 34e7 3dbc 3af0 ffbd 298e e1bd
00000040: f3af 85bd 459f c0bc ff03 8b3d af5b 3c3d
00000050: 8495 bb3b 34de e7bc dae6 d8bc 2cc3 25bd
00000060: 9c28 0ebc 7630 ecbb 0a44 86bc 6be9 56bd
00000070: 4890 08bb 0fe5 fc3a 8f77 3b3c fcb2 b83d
00000080: a640 993d 4738 963d 3ad8 bd3c f4f2 9bbd
00000090: a23f b7bd 10ad 15be 1d3d 0abd cf0a a4bd
000000a0: e480 64bd 42b0 7abc 8dec 6cbd 0141 65bc
000000b0: 44f1 8f3c 3c81 183d b771 c23d bb52 723d
000000c0: 7ec4 bc3d 7ff9 ae3c 3ba0 85bd c5ab febd
000000d0: 283b b1bd 5d9c 4ebd 555f bbbd f758 5dbd
000000e0: a665 cbbc b9e0 10bc d27b 653d 2523 f5bc
000000f0: 90c7 3d3d bbef 84bc ab0d ea3c 1901 84bb
00000100: a311 b9bd 55d1 cfbd 4c79 8ebd 7c20 48bb
00000110: 3ad5 39bd c59a 3fbb 83cf c33d de68 aeba
00000120: 6abf a6bc 13cd d1bb 2415 ce3c 7d9a 023c
00000130: bc98 463c 103c 51bd 8dbf 2bbd 83fc 5bbd
00000140: be57 233b 229b 1e3d 43ca bd3d 97bd 173e
00000150: 39c7 98bd f573 debd 82c1 ed3c ca85 093d
00000160: 808e 0e3d c126 433d 32c5 283d 3b8f 13bd
00000170: 24b7 1e3c e584 773c 265f 8e3d 2dce 183d
00000180: 903e 9dbc fdd5 23be efd0 84bd 85da 803c
00000190: ed4a 8c3d a0fe 833c 36ee 2f3d 9219 a93d
000001a0: b6c5 adbc 5b10 203d d140 e0bb 5d7d 0fbc
000001b0: a6d9 f13c e92a 623c c63f 37be 6499 62bd
000001c0: 1c5c 9b3d 142f 963d 03eb f93b 92f0 0b3c
000001d0: 73bb cf3d 9551 453b 82f9 3a3d 01d4 03bd
000001e0: c5a2 32ba b52b b63c 861a 2f3d 6881 fabd
000001f0: 5e7f 47bc 9488 083d 2add 0a3b 460b a1bd
00000200: 2381 e6ba e192 94bb 6d2c ac3c cc91 6f3c
00000210: 5685 20bc 05aa cc3d 1833 923d 5276 70bc
00000220: 244b c4bd 9e2d 4cbd b7c7 e0bd 9955 dabc
00000230: ab32 a0bb ff71 dabc 69fc fc3c f28f 9b3d
00000240: 3a92 5fbb 0b28 1fbb 9458 a13c 2f9f b9bc
00000250: 7422 fabc b9fa fdbd aa1e a0bd 58dd 8bbd
00000260: a08a 0abd 34e9 c13c 4938 f9bb 34d1 01bd
00000270: 8d8b b83c afae 39bd ab4e f5bc 9ffa aa3b
00000280: 2454 6c3c 8cef 7dbd 9389 28be 504b 65be
00000290: 17a7 33be 7b9c cdbd c0aa aabc 7063 b7bd
000002a0: a8b3 2ebd 983d 86bd 9294 51bd 0c8c 16bd
000002b0: b0fb 7ebd 1ae5 8bbc 8ce7 263d b887 2abc
000002c0: 0328 73bd b3f4 92bd fb4a 01bd 46f0 28bd
000002d0: 32f7 7abc 2fe2 a9bc c4fa 10bd f41f 67bd
000002e0: cd38 c5bc 1b36 0bbd f21e a8bc 5a04 a0bc
000002f0: a1d5 58bd 1224 2dbd f52c 23bd 2c5d 2abd
00000300: 5e96 ddbc 7b07 d33c 8dde db3c 9fe3 6cbd
00000310: 73d4 63bc 27e4 36bd 4f78 29bd 6d0f 06bc
00000320: 5851 f8bc cf90 8a3d e5bb f83c 283d a33d
00000330: 499c bdbc 4e57 75bd c90b 023c 8558 7a3c
00000340: 73f2 59bd 5c36 90bc 86cf a0bb 03ce 37bb
00000350: 38d2 92bd 7f66 693a 8fca 243d 2071 2d3d
00000360: e55b 2f3c be14 87bc bf58 4fbd d3cb f3bc
00000370: 56bd 993b f196 05bc e42f 963c 2701 2cbc
00000380: 1401 a0ba 9f42 493d 2027 b73d 25b2 a0bc
00000390: 7c57 febc 3e34 45bd d767 5cba e4c2 f0bc
000003a0: 909a 483d ad71 c9bc dcee ac3d 88f7 f13b
000003b0: 29cb 9f3d a27f 7e3d 17fd a73c 1544 2cbb
000003c0: e3ae 90bd effa 1fbe 4abc 18bd 2c6b 24bc
000003d0: 5b18 e13d 1559 c3bc 2bcb e8bd e2f3 c23d
000003e0: 28d3 993d e33c c83d b294 3e3d 975d 7d3d
000003f0: 3d2a e03c b0f0 22be 7988 d7bd 4ea9 413d

fc.bias f4 [10]
-0.022808228 0.020548461 0.013545145 0.05516164 0.000665305 -0.026766239 -0.025774358 -0.0046738223
-0.0013000465 -0.013375701
00000000: 52d8 babc 3f55 a83c 75ec 5d3c 2cf1 613d
00000010: dd67 2e3a df44 dbbc bf24 d3bc dd26 99bb
00000020: 5266 aaba c225 5bbc
